checkpoint_Dueling_DDQN.pth (torch_old, 37930 bytes, 11 tensors)

fc1.weight f4 [64, 8]
000000 15 01 f8 bd bd 2a 71 bb 42 31 26 be ad 60 c0 be
       -0.121095814 -0.0036799156 -0.16229728 -0.37573758
000010 8c 77 4b 3e 11 7b 81 3e 3b 27 58 be 30 81 a5 3e
       0.19869822 0.25289205 -0.21108715 0.32325125
000020 c6 a1 34 be 7e 9a f4 3d f5 9f 1e 3e ff 39 bc 3d
       -0.17639837 0.119435295 0.15490706 0.091907494
000030 6a 88 02 bc 54 91 14 bf 5b 88 3e bf 73 89 26 3e
       -0.007967094 -0.58034253 -0.7442681 0.1626337
000040 bf 44 e0 3d c7 4a bb bc f4 98 63 bf 89 0c c0 be
       0.10950612 -0.022862805 -0.8890526 -0.37509564
000050 61 58 24 3c dc 3c be 3e b5 5a 40 be 5e 89 7f 3e
       0.010030837 0.37155807 -0.18784602 0.24954745
000060 7f d0 e5 3e d1 a2 c5 bf 15 40 04 bd 9e b5 d7 bd
       0.44885632 -1.5440313 -0.032287676 -0.105326876
000070 94 7c d8 be ab 48 e9 be e0 45 c8 bd be 2a 3b 3e
       -0.42282546 -0.45563254 -0.097789526 0.18278024
000080 ca 19 6d bf 95 21 83 bf 3e c6 12 be b2 3d 0c bf
       -0.92617476 -1.0244623 -0.14333436 -0.5478164
000090 4e 04 c7 3e d9 31 7b 3e 78 97 2d bd b9 c0 2a 3e
       0.38870472 0.24530734 -0.04238078 0.1667508
0000a0 42 29 21 3d 41 8b 41 bf 6d d2 e8 3d 44 a0 34 bf
       0.039345987 -0.7560311 0.113682605 -0.70557046
0000b0 a8 c1 f6 be f0 12 41 bd a7 bd 8a 3e 30 fc 57 3e
       -0.48194623 -0.0471372 0.27097818 0.21092296
0000c0 c9 7a a8 be fe 7a 3e 3d 2a da ef bc 59 8f cd 3e
       -0.32906178 0.046504013 -0.029278833 0.40148428
0000d0 d1 49 15 3f dc 0b dd 3e f8 8e 0d 3e 5a 30 19 be
       0.5831576 0.4317311 0.1382407 -0.14959851
0000e0 f4 2a 2e 3e d8 9b 9a bf 6d a1 c9 3d 51 b0 ab be
       0.17008573 -1.207881 0.09845243 -0.33532956
0000f0 35 63 88 3e ba 56 55 3e b3 62 33 be 2f 3c 31 3e
       0.2663819 0.20833865 -0.1751812 0.17308114
000100 b8 ab 1f 3e 7b f8 3e bd 9b 92 d6 3e 80 3a b3 3b
       0.15592849 -0.04662369 0.41908726 0.00546962
000110 2c 60 01 3f e6 e7 34 3f 0e ed 07 bf 6d 78 d4 3b
       0.5053737 0.7066635 -0.5309609 0.0064840824
000120 e3 d0 da 3d 28 d8 bb 3e 30 1f 09 3e 76 7c 2a 3f
       0.10684373 0.36688352 0.13390803 0.6659616
000130 ef 83 65 bf dd d4 63 bf f0 52 a9 3d 87 9d a9 be
       -0.8965444 -0.8899668 0.08267772 -0.33127996
000140 91 a4 5e be 50 e5 d1 3e 38 4b 80 3f 1b fb 39 bf
       -0.21742465 0.40995264 1.0022955 -0.7264878
000150 6b 22 76 be dd 02 08 be ba 56 7b 3e cd 5d 9e be
       -0.24036567 -0.13282342 0.24544802 -0.3093094
000160 46 1d c8 bc bf a1 80 3a 0d b8 4e 3f ee 29 42 3f
       -0.024428021 0.0009813829 0.8074959 0.7584523
000170 0b 8c 13 bd 02 a1 87 bc 9a 66 a2 be 14 44 21 3d
       -0.036022227 -0.016556267 -0.31718904 0.039371565
000180 c0 21 00 3f cc f6 be 3e dc d5 99 3e 7e 30 93 bd
       0.500515 0.37297666 0.30045974 -0.071869835
000190 15 44 fb 3c 9b 84 e3 3e 42 47 bd bd 50 73 97 be
       0.030672112 0.44437107 -0.09242107 -0.29580164
0001a0 5d f6 42 bf 91 8c 23 bf 7c d4 4c bf 3b 45 c1 be
       -0.7615717 -0.6388636 -0.80011725 -0.3774813
0001b0 47 5f 3e 3f a8 6c 24 3d ea ff 1c bd 7e 01 3d 3e
       0.7436413 0.040142685 -0.038329996 0.184576
0001c0 50 4e b8 bd fa 51 8c 3e 99 8a b5 3f c7 2f 9e be
       -0.08999312 0.27406293 1.4182922 -0.30895826
0001d0 49 f0 e3 be 46 0e d7 3d 98 11 ff 3d ff ee ae bd
       -0.4451926 0.10500769 0.124545276 -0.08541679
0001e0 13 c9 03 3f 9b e6 bf 3d eb 08 8c bd ac 7d d9 3e
       0.5147869 0.093701564 -0.068376385 0.42478693
0001f0 95 29 db be dd 96 95 be fe 73 95 bd df 6a 1e bf
       -0.42805162 -0.29216662 -0.072975144 -0.6188182
000200 93 8c a1 be 27 d7 2c bf 49 20 8d bd cf 95 07 bf
       -0.31552562 -0.67515796 -0.068909235 -0.52962965
000210 d0 f6 66 be ec 48 57 bc 14 bb 7e 3e 89 b4 ce bd
       -0.22555089 -0.0131399445 0.24876052 -0.10093028
000220 4a c3 0e be 36 8c 2d bd 09 6f 7c 3e 58 62 14 be
       -0.13941684 -0.042370044 0.24651732 -0.1449064
000230 3d a7 7b bc 30 e0 a5 3e ed 84 db 3e 4c 2b 57 bd
       -0.015359697 0.32397604 0.42874852 -0.052531525
000240 db 25 ed be f2 58 8b be 88 66 86 be d5 b3 d4 3e
       -0.46317944 -0.27216297 -0.262501 0.4154345
000250 a3 04 50 3d 4c c9 c6 be 99 b3 29 bf 74 a2 26 3d
       0.050785672 -0.38825452 -0.6628967 0.04068227
000260 1e 02 77 3e 47 cf ae 3e 9f 84 b7 3e 89 ed ee be
       0.24121901 0.34142515 0.3584337 -0.466656
000270 ef e8 18 3f 78 f5 9d bd da 76 e5 3d 1a e8 8f be
       0.5973043 -0.07712835 0.1120431 -0.28106767
000280 78 69 54 be 4f 39 a0 bf 71 16 ac bf 89 e0 a8 bd
       -0.20743358 -1.2517489 -1.3444349 -0.08245952
000290 eb 9a 81 3e 16 a1 39 be 4d 16 17 3e 04 a6 4b 3e
       0.25313506 -0.18127856 0.14754601 0.19887549
0002a0 03 39 dd be f1 db 10 bf 3a c9 71 3e 6d b5 d5 be
       -0.4320756 -0.56585604 0.23611918 -0.4173998
0002b0 f9 69 6b bd c9 71 f9 3e fe dd 51 bc 24 9e 10 3e
       -0.05747411 0.48719624 -0.012809275 0.14122826
0002c0 4c 8f df 3d 27 b3 9d bf c6 ac e6 bc 5d 62 68 bf
       0.109160036 -1.2320298 -0.028158557 -0.9077509
0002d0 90 55 03 be c2 31 9e bd 49 fb 61 3e 69 c6 dc bd
       -0.12825608 -0.07724334 0.22068514 -0.10780031
0002e0 2a 7e 5e 3f 73 93 e6 bd 7b 33 11 bf b9 a3 ab bd
       0.8691126 -0.112585925 -0.5671918 -0.08380837
0002f0 14 e6 37 3d 3a ed 70 3e e4 fc 64 3e 6a 1b 78 3e
       0.044897154 0.23527995 0.22362095 0.24229208
000300 5b d0 10 bf fb 1a c0 be b5 9b 2b bf c1 5c 33 bf
       -0.56567925 -0.37520584 -0.67034465 -0.70063406
000310 f9 29 21 bf 40 c0 44 be e0 7c 9c bd 13 2d 07 be
       -0.6295467 -0.19213963 -0.076410055 -0.13200788
000320 ce dd b0 3e 6d 0c 73 bd b1 dc a1 be b9 f1 d9 be
       0.34544224 -0.059338022 -0.31613687 -0.42567232
000330 f0 f9 44 be e4 e4 02 3e 67 8a 9f be fb 04 c6 3e
       -0.19235969 0.12782627 -0.3116028 0.38675675
000340 03 02 f4 bd 0d a8 4d bf a9 a7 22 be f8 45 28 bf
       -0.11914446 -0.8033455 -0.1588427 -0.65731764
000350 ab 5a b0 be 62 ea ab be e9 29 25 3d 4d 52 4c 3e
       -0.34444174 -0.33577257 0.04032317 0.1995327
000360 d2 8c 5f 3d d7 7a 86 bf d9 81 d9 3e dc 8b be be
       0.054577656 -1.0506238 0.42481878 -0.3721608
000370 1b ce 4f 3e fd 64 71 3e 80 71 ab bd 59 40 b0 3d
       0.20293467 0.2357368 -0.08371258 0.08606023
000380 a5 c4 75 be 00 8f 53 3f a5 79 95 bf 1e 9e e0 be
       -0.24000795 0.82640076 -1.1677748 -0.43870634
000390 14 41 46 bf 20 9d a2 be 14 05 a8 3d 2f 68 9d 3e
       -0.7744305 -0.31760502 0.082040936 0.30743548
0003a0 e9 4b 7d 3e b3 80 1d 3f 73 30 aa 3e 56 00 b0 be
       0.24735989 0.61524504 0.3324009 -0.34375256
0003b0 a6 0a 18 3f 9b 15 fa be ba b4 11 bf 1c 66 31 3e
       0.5939125 -0.4884461 -0.5691639 0.17324108
0003c0 eb 3b 2b be c6 14 0f 3f a2 4c af 3c 6a af b2 3d
       -0.16722076 0.5589107 0.021398846 0.08724864
0003d0 78 36 bd 3f ac 4d 56 bd 6e ee ef 3e 92 d4 43 be
       1.4782248 -0.052320167 0.46861595 -0.19124058
0003e0 36 9d c5 3e b3 08 b1 be b3 5b 17 3e 3b 6b 85 3e
       0.38596505 -0.3457695 0.14781074 0.26058373
0003f0 a0 62 ef 3e 4f 4f 11 3e a7 70 9c be 5c 0c 33 3d
       0.46754932 0.1419041 -0.30554697 0.04371296

fc1.bias f4 [64]
000000 fc e6 6e be 97 fe a8 be 42 d2 13 3e 39 b0 ad 3b
       -0.23330301 -0.33006737 0.14435676 0.0053005484
000010 02 13 3a be fa e1 e3 bd a9 77 51 3e 93 d9 6d be
       -0.18171313 -0.11127086 0.20455803 -0.23227529
000020 2b c9 33 3d 19 ab 7f 3e 3c b5 58 3e 40 4b f2 bb
       0.04389302 0.24967612 0.21162885 -0.0073942244
000030 4e 51 98 be 62 b8 76 be d4 80 ac 3e 90 28 7a 3e
       -0.2974953 -0.24093774 0.33692038 0.24429536
000040 50 2f 03 3e 5f 2a 83 be d0 a4 93 3e 74 ae 06 3f
       0.12811017 -0.25618264 0.2883668 0.52609944
000050 f2 56 be be d4 da 03 bf 1c 00 a3 be 6e 8a b6 3d
       -0.3717571 -0.5150578 -0.3183602 0.08913122
000060 ae 8a 85 bc a3 ae be be f2 9e 38 3c 37 12 87 be
       -0.01630148 -0.37242612 0.011268364 -0.26381084
000070 e2 50 44 bd 21 74 28 3d aa d1 fc bd 69 97 a5 be
       -0.0479287 0.041126374 -0.12344678 -0.3234208
000080 c3 f5 cc 3d 8e 64 8d 3e 36 5a a1 be d5 39 65 3b
       0.10007813 0.2761578 -0.31514138 0.0034977098
000090 d3 26 4b 3d 50 28 a6 3e 97 be ab be 4c d6 8c be
       0.049597573 0.3245263 -0.33543846 -0.27507246
0000a0 4d a4 25 3e 7e 96 f8 be 83 a7 9a 3c 91 3f 70 3e
       0.16175957 -0.48552316 0.018878704 0.23461749
0000b0 66 50 f7 3d 2f 47 01 3e 19 50 f5 3e ce 19 18 3e
       0.12075882 0.1262481 0.47912672 0.14853594
0000c0 d9 50 cb bc 10 63 67 bd 66 9c e2 3d 5e 8e 46 3e
       -0.024818825 -0.056490958 0.11064987 0.19390246
0000d0 4f fa 77 3d 68 9e 01 3f 54 5d a3 3e bb 05 81 be
       0.060541447 0.50632334 0.3190714 -0.25199685
0000e0 55 04 88 3e 9f dd a3 3e 31 3b 54 3e 3a 59 91 3e
       0.26565805 0.3200502 0.20725705 0.28388387
0000f0 aa 80 a4 bd d9 eb d5 be e7 b6 cc bc 3b cc 92 3e
       -0.08032353 -0.417815 -0.024989558 0.2867144

fc2.weight f4 [64, 64]
000000 c6 de 59 3e 45 3c 20 3d 93 22 bb 3d 12 92 ed 3c
       0.21276388 0.039119978 0.09137454 0.029000316
000010 7b 44 63 3e 06 72 0e bd 16 2a d5 be 67 76 ac 3e
       0.22194092 -0.03477671 -0.41633672 0.33684084
000020 7f d2 aa 3d 0f 9c 49 bf 02 76 20 be 45 14 9d 3d
       0.0834093 -0.7875375 -0.15670016 0.07669882
000030 a4 91 a7 3e 8b 1f f9 3d c0 85 60 be 20 b2 33 bf
       0.32728302 0.121642195 -0.21926022 -0.7019367
000040 39 bb e2 bd 60 38 f9 3d e5 31 ad 3e 48 79 1c be
       -0.11070866 0.12168956 0.3382713 -0.1528064
000050 22 8d 99 3d 64 16 c2 3e f1 fb de 3e ba fd d4 3d
       0.07497622 0.37907708 0.4355159 0.10399957
000060 da d1 23 3e 2d f1 33 3e 6c 08 4e 3e a5 b7 91 3e
       0.15998021 0.1757247 0.201204 0.28460422
000070 0f e9 2d be fa 71 aa be 95 61 0c bd 5f f9 42 3f
       -0.16983436 -0.33290082 -0.03427275 0.7616176
000080 bb 87 5c bd b2 ca 51 be cd b0 3c 3e 12 58 ae be
       -0.05384038 -0.20487478 0.18426819 -0.34051567
000090 35 4c b1 3e 9d 94 0d 3c 30 9d 35 3d 8e e7 45 bd
       0.34628454 0.008641389 0.04433936 -0.04831653
0000a0 6a 6a d9 3b 3d 3d 70 3e 9f 2d b9 be f5 47 d6 be
       0.006635 0.2346086 -0.3616762 -0.41851774
0000b0 69 1a 20 3e 4e 7d a3 bd b9 fb 00 bf 54 58 b5 be
       0.15635075 -0.07982884 -0.503841 -0.35418952
0000c0 22 3b f8 be 63 4f a2 be 44 c7 01 bf ec 4b a5 be
       -0.48482615 -0.31701192 -0.5069468 -0.32284486
0000d0 01 77 c5 3d 4a 73 d6 bc 7c c8 a6 3e d8 a0 9d 3d
       0.09641839 -0.026178021 0.32574832 0.07696694
0000e0 00 8e 20 3e 8d 10 34 be eb 4b 19 be c4 57 a5 bd
       0.15679169 -0.17584439 -0.14970367 -0.080733806
0000f0 8a 25 d3 bd 17 43 4d 3e 0c 15 ac be a2 54 60 bc
       -0.103098944 0.20045124 -0.33609807 -0.013692053
000100 30 ac 23 3d 55 f0 4a 3d 18 3c 11 3e 4d 85 15 3e
       0.039959133 0.049545605 0.1418308 0.14601631
000110 7b 54 f2 3d 01 66 56 3e 49 fc 80 be 77 20 74 3e
       0.118325196 0.20937349 -0.25192478 0.2384051
000120 82 d2 dc 3c e5 66 56 3d 00 02 90 bc c7 64 0b bf
       0.026955847 0.05234422 -0.017579079 -0.5445065
000130 d4 74 c9 3d 0f ae f7 bc 8e 6f 5c be ed ba 8b bd
       0.09836736 -0.030234365 -0.2152693 -0.06822763
000140 b4 78 8b 3c ba 82 15 3e b1 aa b2 be 38 9c 1e bd
       0.01702533 0.1460065 -0.34895852 -0.0387232
000150 ea c1 ec 3d e2 b2 26 be 75 7d 84 3e 3e 24 eb 3c
       0.11560424 -0.16279176 0.25876966 0.028703805
000160 e6 73 9b be 2b 68 94 3c d9 4b e3 3d ac 96 01 3e
       -0.3036186 0.018116077 0.11098451 0.12655133
000170 a0 d1 e6 be 15 4c d4 bd cf ea c3 bd bc e7 0e 3f
       -0.45081806 -0.10366074 -0.095662706 0.5582235
000180 a6 f2 69 be ab 24 06 3e 53 a0 bc 3e 4d e2 76 be
       -0.2284647 0.13099925 0.36841068 -0.24109764
000190 04 a0 8e 3e ad 38 50 3e ca 4f af 3d b6 84 33 3e
       0.27856457 0.2033412 0.085601404 0.17531094
0001a0 17 ba 27 3d a1 13 28 bd f2 f8 cc be 60 7a 4e bf
       0.040948953 -0.041034345 -0.4003368 -0.8065548
0001b0 81 9c b6 3e 2e c4 b1 bd 18 70 e0 be f8 9c d7 be
       0.35666278 -0.086799964 -0.4383552 -0.42111945
0001c0 02 69 dd bc d9 9c 07 bf 6e 06 20 bf eb 03 13 bf
       -0.02702761 -0.52973706 -0.6250981 -0.57427853
0001d0 89 42 98 bd aa ce 1a 3e 96 18 1f 3e 4e 91 e1 bd
       -0.074345656 0.15117899 0.15536723 -0.11014043
0001e0 b0 e0 ab 3d 7f a1 8c be 98 80 1d bd 64 e2 85 3d
       0.08392465 -0.27466962 -0.038452715 0.06537321
0001f0 96 72 92 be 72 f3 89 3d 61 1d 61 be 83 d9 2d 3e
       -0.28603047 0.06735887 -0.21983863 0.16977505
000200 bf 6d 2f be 22 f9 71 3f aa 00 02 bc d2 c9 d5 3e
       -0.17131709 0.9452077 -0.007934729 0.4175554
000210 03 34 07 be 2c 5b 32 3d 08 c1 03 3e ed 19 6f 3b
       -0.13203435 0.04354398 0.12866604 0.0036483959
000220 4a 1a e5 3e 38 22 03 3f 85 76 36 be c6 63 18 bf
       0.4474662 0.5122409 -0.17818649 -0.5952724
000230 0d 31 2a bf e7 69 b2 bd c5 4e 1e 3d 5e 65 35 3f
       -0.66481096 -0.087116055 0.03864934 0.708578
000240 5d d3 d6 bb 49 94 64 be 40 e5 b4 3e 14 78 6f be
       -0.006555958 -0.22322191 0.35331154 -0.2338565
000250 7b a8 e0 3d 9c b7 24 bd 4a 1a 2a bc 8d 2d 82 bd
       0.10969635 -0.040214166 -0.010382244 -0.06356344
000260 19 42 92 3e 02 83 a8 bc 0d 53 14 bd ae a5 e5 3d
       0.28566054 -0.020570282 -0.036212016 0.112132415
000270 4e 3e 3f be 65 8d 2a bf 8f e5 97 be 0e fa 11 3f
       -0.18676111 -0.66622 -0.29667327 0.5702218
000280 06 bf 05 bd 53 2a 2f bd 09 4b bc be f3 61 8b 3e
       -0.032652877 -0.042764973 -0.36775997 0.27223167
000290 45 39 12 be 6c e6 47 3f cc f7 ca 3d ca 29 42 3e
       -0.14279659 0.7808597 0.09910545 0.18961254
0002a0 42 96 fd 3c e4 d9 35 3e 2f 6a 26 3e 16 6e 08 bd
       0.030955438 0.177589 0.16251443 -0.03330811
0002b0 b4 2f f4 3c 87 8c 04 3d f3 5e 38 3d 6f 61 30 3e
       0.029807903 0.03236058 0.045012426 0.17224668
0002c0 d4 31 fc be 71 73 dd 3c c6 de 1a be 03 c7 97 be
       -0.49256766 0.027032586 -0.15124044 -0.2964402
0002d0 f2 4d 3d 3d 80 6f 0d 3e d9 c1 5d be 94 59 9d 3d
       0.046216913 0.13812065 -0.21655978 0.07683101
0002e0 1d d3 d4 3e a8 ac a4 3d c5 45 15 bd ef 0d c0 3e
       0.41567317 0.08040744 -0.03644349 0.3751063
0002f0 6b a4 97 be c9 2f 3f 3c 8f 83 0d be 30 b4 f7 3e
       -0.29617628 0.011669108 -0.13819717 0.4837966
000300 47 6d 9c 3d c8 37 32 3c 5c 98 42 3e 4f ce 3a bd
       0.076380305 0.010877557 0.19003433 -0.045606907
000310 9e b4 7c 3e 9e b9 0e 3d a7 f4 1d 3e 0d d6 bc 3e
       0.24678275 0.034844987 0.15425359 0.36882058
000320 2f b3 ae 3e 57 44 63 bf c8 38 55 3e c8 8d 99 bd
       0.3412108 -0.88776153 0.20822442 -0.07497746
000330 28 f1 99 3e d5 04 2d 3e a4 db 75 3d 7d 4a 50 bf
       0.300668 0.16896375 0.06002392 -0.8136366
000340 42 5c 8b bc 82 a6 47 3d 25 b2 7f be 94 0e 6d be
       -0.017011765 0.04874278 -0.249703 -0.23150092
000350 5a fe 81 be 16 65 b6 bc 4f d2 65 3e fc e4 c4 3d
       -0.25389367 -0.022264998 0.22443508 0.09613988
000360 73 e7 43 3e 32 98 55 3e ad bf 57 be 71 44 c4 3e
       0.1913126 0.20858839 -0.21069212 0.38333467
000370 2e ed 01 be 1e f2 91 bf 7a ea c3 be 95 b6 7e 3e
       -0.12688133 -1.1402013 -0.3826483 0.24874337
000380 40 23 16 3e bb 6b 8e be 15 63 fe 3e 08 bc 6c be
       0.14661884 -0.27816567 0.4968497 -0.23118603
000390 2f d5 5a 3e 6a 2d a0 3d 06 90 fe 3d f8 76 44 be
       0.21370386 0.07821162 0.12429814 -0.19186008
0003a0 86 85 74 3d bd 53 82 be 0d 18 f5 be f4 40 78 be
       0.05969765 -0.25454512 -0.47869912 -0.24243528
0003b0 25 f7 9d 3e c4 ec 30 be ff 8e 02 be 62 55 1d bc
       0.3085262 -0.17277819 -0.12749861 -0.009602876
0003c0 a5 00 dd be 13 f9 8d bc a6 88 0f bf a4 00 e0 bd
       -0.43164554 -0.017330682 -0.56067884 -0.10937622
0003d0 de 74 b1 bd 4a 9e d7 bc c3 50 cc bd 08 df dd bd
       -0.08664869 -0.026320595 -0.099763416 -0.108335555
0003e0 60 b0 15 3e 37 1a 6b be 01 ec c6 bd a0 e4 30 3d
       0.14618063 -0.22959219 -0.09712983 0.043186784
0003f0 99 90 e6 3d 31 39 00 be f6 fc 65 ba cd 16 e2 3d
       0.112580486 -0.12521817 -0.0008773351 0.11039505

fc2.bias f4 [64]
000000 99 a0 8a be a5 bf 97 be 86 af 65 3d 4d cf 8b 3d
       -0.2707565 -0.296384 0.056075595 0.06826649
000010 83 7a 1e 3e 48 c0 e3 3b 04 27 b5 bd f7 28 44 be
       0.15476422 0.006950412 -0.08845332 -0.19156252
000020 94 b8 12 3e d3 17 c9 bd 3f 62 31 be 19 fd fe bd
       0.14328223 -0.09818997 -0.17322634 -0.12450618
000030 0b d9 d8 bc 87 ed 48 bd b6 23 9f bc 56 c8 4e 3e
       -0.026470682 -0.04905465 -0.019426208 0.2019361
000040 9d 41 2c 3e 35 c9 0b 3d 18 df 0f be e7 72 1d bd
       0.16821904 0.034127433 -0.14049947 -0.038439658
000050 86 a1 0a 3d 00 fb 1d be 92 98 02 3d 77 ad f5 bd
       0.033845447 -0.1542778 0.031883784 -0.119959764
000060 2f 2c 6a bd f8 ec f3 3c d7 79 c7 bb 09 65 ce bd
       -0.057171043 0.029776081 -0.0060875225 -0.10077865
000070 30 a7 90 3c 5c 14 89 bd 7d a9 56 3e 4f 34 10 3e
       0.017657846 -0.06693336 0.20963092 0.14082454
000080 6a 79 ba 3e 46 3d 08 3e 18 7f f6 3d ab 7d 16 be
       0.36420757 0.13304624 0.1203596 -0.14696376
000090 f3 93 57 3d 15 76 94 bd b7 fd 06 be 25 b4 09 3e
       0.05263133 -0.07249085 -0.13182722 0.13447626
0000a0 d5 3b 49 3e 6b fe c9 bc a9 e8 82 3e 98 80 9a bd
       0.1965173 -0.024657449 0.2556813 -0.075440586
0000b0 90 ee d7 bd cf ba ba 3d d1 93 78 be 6f e6 d4 bc
       -0.10543549 0.09117662 -0.24275137 -0.025988786
0000c0 bb 37 9d 3e 21 99 4d bd 7b 75 ae 3e f1 f2 e1 bd
       0.3070658 -0.050194863 0.34074005 -0.110326655
0000d0 c3 59 cb 3e b3 78 1a bc 26 7b ce 3c c6 52 3d 3e
       0.3971692 -0.009428191 0.025205206 0.18488607
0000e0 54 a9 a9 bc 58 e6 79 bd d3 02 19 be 72 44 06 3f
       -0.020710625 -0.06101069 -0.14942484 0.5244819
0000f0 41 be 06 3d db 21 8b be 36 69 9a 3d 5b 3e 9e 3e
       0.032896284 -0.27174267 0.07539599 0.30906948

fc3_1.weight f4 [32, 64]
000000 77 65 74 3e 32 66 9c 3e e3 ea 9d 3c e8 9f 2e 3e
       0.23866831 0.3054672 0.019277042 0.17053187
000010 82 1d 64 3e 3a 96 a1 3d 46 ea 20 3f fa 33 33 3e
       0.22276881 0.078899816 0.6285747 0.17500296
000020 c7 5f ed bc 14 cb 4c 3d 6c 83 07 3e 86 5a 7e bd
       -0.028976334 0.049998358 0.13233727 -0.06209805
000030 f9 2a af 3e 65 88 2c 3e 78 e1 06 3d bd af 81 3e
       0.34212473 0.16848905 0.032929868 0.2532939
000040 05 bb 8d 3e a7 17 2a 3e 42 ba 87 3e 57 30 1d 3f
       0.27681747 0.16610585 0.2650929 0.61401886
000050 ca 80 08 3e a5 d3 a0 3e 2d 51 6d 3e 60 c1 c4 bc
       0.13330379 0.31411472 0.23175497 -0.02401799
000060 63 76 09 3d c8 17 83 3f 6a bb 94 3e 75 28 2a bd
       0.033560168 1.0241632 0.29049236 -0.04154249
000070 8a 2e 1e 3f 7d c8 18 3e 6c a2 92 3e 4e 9c af 3e
       0.6178976 0.1492023 0.28639543 0.3429894
000080 43 de d5 3a 00 39 14 3f 44 0c 9d 3e 06 09 60 bf
       0.001631685 0.57899475 0.3067342 -0.8751377
000090 c9 44 c6 3e 9c cc eb 3e 23 49 52 3e ad 04 40 3e
       0.38724354 0.46054542 0.20535712 0.18751784
0000a0 e7 f6 33 3e 48 a4 63 3e 5f 76 a4 3d c4 48 24 3d
       0.17574655 0.22230637 0.0803039 0.040108457
0000b0 6b f9 8b 3d fa 7b 43 bd fd 13 db 3e fc 53 b8 bc
       0.06834682 -0.047725655 0.42788687 -0.022500984
0000c0 19 c7 ff 3d 54 4b b2 3e 43 b5 19 bf 3c 6d 94 3e
       0.12489147 0.34823096 -0.6004221 0.2898959
0000d0 96 7e 87 3e 57 56 4e 3e 51 1a b5 3e 84 b8 4f bf
       0.26463765 0.20150124 0.3537164 -0.81140924
0000e0 b1 e7 42 bd 1c 36 19 3e 6e 3f c3 3d 5a 5c 5b bd
       -0.04758424 0.14962047 0.09533583 -0.05355487
0000f0 7f b3 98 be 1e 83 80 3d 23 8a bb 3e 40 b1 fd 3d
       -0.29824445 0.062750086 0.36628827 0.123873234
000100 27 2b b6 3e 40 a4 95 3e 30 42 00 3e fa 6a 17 3e
       0.35579798 0.29226875 0.12525249 0.14786902
000110 ed d0 86 3d 5c 23 bf 3d e3 1a 0f 3f 74 49 13 3d
       0.06582818 0.09332916 0.559004 0.035958722
000120 5a f0 6b 3e 4e be 8b bd 47 3e 02 3e e2 8b 0d bd
       0.23040906 -0.06823407 0.1271907 -0.03455723
000130 8c 82 ef 3e 86 d7 42 3e 18 75 62 3e 53 53 8d 3e
       0.46779287 0.19027528 0.2211498 0.27602634
000140 c4 7c 37 3e fc ca 88 3e d2 ff a9 3e 23 e4 12 3f
       0.17918688 0.26717365 0.33202988 0.5737936
000150 8d d0 16 3e a0 af be 3e d3 52 3f 3e f9 15 97 bd
       0.14727993 0.37243366 0.18683939 -0.07377238
000160 ef ed 1e bc f3 2d 5a 3f 7c f7 82 3e e1 e6 64 3d
       -0.0097002825 0.8522636 0.2557944 0.055884246
000170 f1 4d 1b 3f 18 56 0b 3e 7d c0 1e 3e ee ee 7b 3e
       0.60665804 0.13607061 0.15503116 0.24602863
000180 88 79 08 3d 5d 87 db 3e 92 9f 55 3e 89 ea 1d bf
       0.033319026 0.4287671 0.20861652 -0.61686
000190 94 b2 60 3e dd 7b 9a 3e 08 a7 8f 3e c1 3d 9b 3e
       0.21943122 0.30172625 0.28057122 0.30320552
0001a0 fa 43 7b 3c 17 3e e4 bb 58 37 2b bd 49 66 ea 3d
       0.015336031 -0.0069654095 -0.041800827 0.114452906
0001b0 0f bd 75 bd 1a 5d 8e bb fa 28 ec 3e 45 2c 07 bc
       -0.059994753 -0.0043445947 0.46125013 -0.008250301
0001c0 0d 8e 31 3e 93 18 3c 3e 20 a9 18 bf d3 3f c1 3e
       0.17339344 0.1836875 -0.59633064 0.37744007
0001d0 a8 c6 83 3e ae 44 8c 3e 6b 31 92 3e d9 a3 63 bf
       0.257375 0.27396148 0.28553328 -0.88921887
0001e0 35 59 92 bc 70 55 70 3e 42 cc a5 3d 61 ae d9 bd
       -0.017864803 0.23470092 0.080956 -0.10628963
0001f0 ae e9 55 be cf d4 dc 3d 10 e9 d9 3e 53 61 23 3e
       -0.20889923 0.107827775 0.42560625 0.15955095
000200 b4 17 8e be 93 4e ef be 26 8d 96 3d b9 72 7c bd
       -0.2775246 -0.46739635 0.07351141 -0.061632846
000210 5a 67 02 3f 18 e9 18 be 59 d4 83 be a2 64 cc 3c
       0.5093895 -0.14932668 -0.25747946 0.02495033
000220 e6 25 32 bf a0 5c b9 3d 47 2f 2c be c0 8a 0a 3d
       -0.6958908 0.0905087 -0.1681491 0.03382373
000230 4c c1 90 3e c4 f3 80 be 18 53 7c bb 0b 84 83 3e
       0.28272474 -0.25185978 -0.0038501676 0.25686678
000240 e0 61 27 3e b7 9a b4 ba 83 c2 08 bf 10 b9 b2 be
       0.1634593 -0.0013779019 -0.534218 -0.34906816
000250 99 dd 41 3e 3f c5 f9 3d c4 24 52 3d 88 80 9a 3c
       0.18932189 0.12195825 0.051304594 0.018860117
000260 ed b3 d5 bc 77 7d 6d 3f 5b b7 12 be c0 3d 9a bd
       -0.026086772 0.9276957 -0.14327757 -0.07531309
000270 84 4c 8d 3e 44 1b c9 3d 32 a7 4e 3d b5 8d b7 3e
       0.2759744 0.09819654 0.05045242 0.358503
000280 bf 1b dc 3d d4 05 f6 3e 32 fd 5f 3e 6d 2c 99 bf
       0.1074748 0.48051322 0.2187393 -1.1966683
000290 cf 61 f0 3e 3b b4 9c be bc 35 a8 3d bb 12 f2 bd
       0.46949622 -0.30606255 0.08213374 -0.11819979
0002a0 d0 2b 1b 3d d3 0d a8 3d 9f 44 9d be 86 24 86 3d
       0.03788358 0.08205762 -0.30716416 0.06549935
0002b0 b0 e1 dd 3c b4 45 8e bc 9b a8 b6 bc 64 da c0 bd
       0.027085155 -0.017367221 -0.022297194 -0.09416655
0002c0 5f 8d c5 3e 42 eb 95 3e 3d b5 c3 be 25 e4 fe bd
       0.3858442 0.2928105 -0.3822421 -0.12445859
0002d0 33 c0 62 3e b2 30 1b bf dd b9 81 3e 04 32 37 be
       0.2214363 -0.6062118 0.25337115 -0.17890173
0002e0 e8 5e 4e 3d 24 9a 98 be fd c3 d1 bc 47 e4 86 3e
       0.05038348 -0.298051 -0.02560615 0.26346037
0002f0 e7 26 1f bf e0 36 03 bf 3e d0 ba 3e 67 8e 56 3e
       -0.62168735 -0.5125561 0.36487 0.2095276
000300 01 53 0a 3e 61 4f 96 3e db ea 96 3d 99 94 51 bd
       0.13508226 0.29357436 0.07369014 -0.051167104
000310 08 a9 4d 3e 52 35 d9 3d 81 e6 f9 3e fd dd 28 bd
       0.20084012 0.10605873 0.48808673 -0.04122733
000320 07 30 8e 3d 31 41 03 bd 95 83 88 3d 80 12 23 bb
       0.06942754 -0.032044593 0.06665722 -0.0024882853
000330 37 ff 59 3e f5 29 17 3c 33 a8 17 3e 62 46 90 3e
       0.21288763 0.009226312 0.14810257 0.28178698
000340 dd 8d 07 3e 49 8a 4b 3e 50 16 8d 3e d2 03 ee 3e
       0.1323771 0.1987697 0.27556086 0.4648729
000350 70 68 90 3d e7 50 88 3d 8f 30 63 3d 42 49 50 bc
       0.0705117 0.06656056 0.05546623 -0.0127127785
000360 b0 75 ba 3a 3d 07 85 3f 47 5b b1 3d d6 41 27 bd
       0.0014225747 1.0392834 0.08659988 -0.04083427
000370 ec 47 03 3f fd 67 0a 3e 05 d5 95 3e 8f 45 07 3e
       0.5128162 0.13516231 0.29264084 0.13210128
000380 40 17 f8 3d 2f 04 05 3f 36 d1 14 3e 09 52 5e bf
       0.121138096 0.5195951 0.14532933 -0.86843926
000390 1a 69 bc 3e 30 ec 76 3e ca 69 3b 3d 21 e9 5a 3d
       0.36798936 0.24113536 0.045755185 0.053444985
0003a0 ff d1 6c 3d 6d b8 d6 3d 99 07 66 bd 48 63 c5 bd
       0.057817455 0.10484395 -0.05615959 -0.09638077
0003b0 dd 0e 02 3e 41 44 08 be 0c ff 8b 3e ea f0 21 3c
       0.12700982 -0.13307287 0.27343023 0.009884099
0003c0 47 20 36 3e 8c c4 ba 3e c2 11 2a bf 40 78 43 3e
       0.1778575 0.36478078 -0.66433346 0.1908884
0003d0 6e 91 89 3e 14 be 22 3e be aa f5 3d d0 49 18 bf
       0.26868767 0.15892822 0.11995457 -0.5948763
0003e0 0f 5d 17 3e 62 9e 0f be bf 0c 41 3c 43 d6 09 bc
       0.14781593 -0.14025262 0.011782824 -0.0084129
0003f0 79 dd 37 be 17 39 f6 bd b1 6b 9c 3e 6c ab 0f 3e
       -0.17955579 -0.12022608 0.30550912 0.14030236

fc3_1.bias f4 [32]
000000 5b a6 59 3e 58 fe 8f 3e 00 1b d3 3e 75 dd 26 3e
       0.21254866 0.28123736 0.41231537 0.16295417
000010 2d 8d 02 3e 77 64 9f 3e cf 88 eb 3e 6b 04 51 3c
       0.12749167 0.31131336 0.46002814 0.012757401
000020 da 57 7b 3e 62 de 32 3f 70 f8 b3 be bc b4 3e 3e
       0.24545231 0.6987058 -0.3515048 0.18623632
000030 8b 9d 23 3f cb 5e 61 3e 14 b2 bf 3e 8d 33 ef 3d
       0.63912266 0.22008817 0.3744055 0.116797544
000040 43 38 9c 3e a7 3b 3a 3e b4 15 11 3d 15 7b 21 3f
       0.30511674 0.18186818 0.03542109 0.63078433
000050 29 4c e3 3d 9a 20 4e 3e 3f 9d 4f 3f d9 cd 20 3f
       0.11098511 0.20129624 0.81099313 0.628141
000060 41 d7 37 3e 7c 61 ba 3d d5 2f 19 3e e2 ad 93 3e
       0.17953207 0.09100625 0.14959653 0.288436
000070 8b 99 8d 3e 09 29 e0 3c 0d 9a fa 3d d9 eb 6d 3e
       0.27656206 0.027363317 0.12236414 0.232345

fc4_1.weight f4 [1, 32]
000000 18 09 bf be da 9a 90 be 03 69 a1 bf 57 d7 87 be
       -0.37311625 -0.28243142 -1.2610172 -0.2653148
000010 17 ff b5 be cf 6e 3a 40 60 85 92 3f 50 26 8c 3c
       -0.3554618 2.9130132 1.1446953 0.017108113
000020 80 d0 df be 64 45 a4 3f fe 4f a4 3f 5f 89 e2 be
       -0.4371376 1.2833676 1.2836912 -0.4424543
000030 99 6e a9 3f e7 17 e3 be 7b e5 27 40 c5 c2 95 be
       1.3236877 -0.44354174 2.6233814 -0.2925016
000040 1b e1 97 be 6f c9 bd be 59 90 f9 3f 1b d2 97 3f
       -0.2966393 -0.37067744 1.9497176 1.1860994
000050 43 02 95 be ca 72 8e be 4d 2b 55 40 69 06 b8 3f
       -0.29103288 -0.27821952 3.3307679 1.4376956
000060 49 47 c5 be 19 89 df be 0e fb d9 be 5f 4c a4 be
       -0.3853095 -0.43659285 -0.42574352 -0.32089517
000070 65 8a de be 39 a6 b3 be a4 bf b3 be ec 35 92 be
       -0.43464962 -0.35087755 -0.35107148 -0.28556764

fc3_2.weight f4 [32, 64]
000000 46 7e 8e bd 1b cc b3 bd d3 b3 38 be 91 ba 20 bb
       -0.069576785 -0.087791644 -0.18037347 -0.0024525265
000010 3e 28 1e 3d 57 5e 1e bd cd 5f c5 3d c4 46 90 be
       0.038612597 -0.03866419 0.09637413 -0.2817899
000020 97 60 59 bd 16 10 ae bd 66 6b ac 3d d8 cc 5f 3d
       -0.05307063 -0.08499162 0.08418922 0.054638714
000030 75 30 05 3d 99 6a bf bd ce 84 be 3d 89 4e b1 3e
       0.032516915 -0.09346504 0.09302674 0.3463023
000040 ac c3 a1 3d a6 97 90 3e e8 14 d0 be ae 99 2a 3d
       0.078986496 0.282407 -0.4064095 0.041650467
000050 ba bd 26 3e 69 9a 96 3e e9 88 9d 3d ac ef 63 3d
       0.16283312 0.2941468 0.07692129 0.05564849
000060 0b 7e 34 3d a4 5a 2a bf 55 5e 36 be c1 65 a6 3d
       0.044065516 -0.66544557 -0.17809422 0.08124877
000070 4c 26 d4 3e 48 41 cc bd 6d 19 10 bf 9e ca 58 3d
       0.41435468 -0.09973389 -0.56288797 0.052927606
000080 82 6c 59 3e ec 5c 9c bd bb 4c c5 be 32 57 0a bf
       0.21232799 -0.07634911 -0.38535103 -0.540393
000090 52 09 49 3c 4b c6 26 3e ac 03 b0 3d 4b c0 b0 3c
       0.012270289 0.1628658 0.0859445 0.021576067
0000a0 a0 d3 ce bc 19 2b b6 be cc 90 d6 bd 80 c6 f5 3d
       -0.025247395 -0.35579756 -0.104768366 0.120007515
0000b0 15 e4 ea bd ca 8b 1d 3d 3f 2b 8d 3d 1f 82 cf bc
       -0.114692844 0.03846339 0.06893014 -0.025330601
0000c0 86 92 5e be f3 09 09 bc fe ef ab 3e a7 f5 a6 3d
       -0.21735582 -0.0083641885 0.33581537 0.08152323
0000d0 ac f3 0a 3f c3 ca 99 3e 84 de 10 3f 54 4f 1c be
       0.54278064 0.30037507 0.5658953 -0.15264636
0000e0 87 6b ff bc 08 be 60 bd d7 13 70 bb f9 57 9b 3e
       -0.031179203 -0.054868728 -0.003663292 0.30340555
0000f0 d2 8f 20 bb a0 86 99 3e 70 c8 31 3e 47 e8 45 bd
       -0.0024499786 0.29985523 0.17361617 -0.04831722
000100 a2 e7 a2 3d 87 67 89 be ec b4 0e 3f d2 32 1b be
       0.07954337 -0.26836798 0.55744815 -0.15156105
000110 ee 87 a6 be d6 ff 48 bf 5f e1 77 3c 2a ee 02 3e
       -0.3252558 -0.78515375 0.015129416 0.12786165
000120 b6 2e b2 3e d8 23 7f bd df 25 5e 3e a4 52 30 bd
       0.34801263 -0.062290043 0.21694134 -0.043047562
000130 3f 2b dd be 6b 9d e5 be 98 c5 91 be 77 e8 d1 3d
       -0.43197057 -0.44846663 -0.28471065 0.10249417
000140 96 bd ef bd 10 30 64 bc 27 43 4c 3e c0 91 83 bc
       -0.117060825 -0.013927475 0.19947492 -0.01606071
000150 88 16 e7 bc a3 6e b8 be 35 39 c4 3e fa 51 a1 bc
       -0.028208986 -0.3602191 0.38324896 -0.01969241
000160 7a f5 01 3d 96 4b 93 3d a6 94 5f 3e 4f a4 08 bd
       0.031728245 0.07192151 0.21834049 -0.033359822
000170 1f 75 02 bf 8c 76 9a 3c e2 dd 04 3f ce c9 65 be
       -0.5095996 0.018855356 0.51901066 -0.22440264
000180 0e e9 6d 3e e5 9e 7e 3e 4c d7 8e 3e 98 b5 ee bc
       0.23233435 0.24865301 0.27898633 -0.029139325
000190 81 a2 90 3e 92 b7 e7 bd 68 91 3c be 85 6e 8e bf
       0.2824898 -0.1131431 -0.18414843 -1.1127478
0001a0 a8 03 5c 3e 4b 41 14 be 20 75 84 3e 30 83 24 bd
       0.2148577 -0.14478032 0.2587061 -0.040164173
0001b0 88 cd 77 3d 49 58 3c 3c d7 50 fe 3d 3c cc cf 3d
       0.060498744 0.011495658 0.12417763 0.101463765
0001c0 56 f2 f4 3d ed 60 29 3e e8 ca 54 3e 3e ff b3 3e
       0.119602844 0.1654088 0.20780528 0.35155672
0001d0 e9 a7 89 bd be 55 b5 be 54 93 26 3d f3 6e 04 bb
       -0.067214794 -0.3541698 0.040667847 -0.0020207732
0001e0 68 4e eb 3d d1 3e 8b 3e 1e 3a 99 3d d5 32 ad 3c
       0.11489564 0.27196363 0.07481788 0.021142403
0001f0 5a 7c a4 be 14 31 70 be 67 0d 84 3c 51 3f a4 3e
       -0.32126123 -0.23456222 0.016119672 0.32079557
000200 1f c0 00 be f9 7c c7 3d 4f e9 65 3d 05 02 7b bd
       -0.12573288 0.097406335 0.056130704 -0.061281223
000210 67 56 0a bb 74 a2 a7 3d e3 08 c5 3d 2f 06 dc bc
       -0.0021108629 0.08185282 0.09620836 -0.026858417
000220 14 79 89 bd c4 17 0f 3d fd 1a 7f 3d 4b 7e 00 3c
       -0.06712547 0.034934774 0.062281597 0.007842611
000230 e8 39 48 3d e9 65 18 3e c2 a1 05 3d 4b 3a 89 bd
       0.04888335 0.14882626 0.032624967 -0.067005716
000240 11 ef a5 3b 67 eb 75 bd 05 a9 17 3e e4 2e 12 be
       0.0050638993 -0.06003895 0.1481057 -0.142757
000250 b1 ca 94 3c 6d 40 50 bd cd ff 2a 3d 0f c1 0c be
       0.018163057 -0.05084269 0.041747857 -0.13745521
000260 eb d4 4a bc 1b a6 0a 3d ba ef 0f be 5a 4e a6 3d
       -0.012379865 0.033849817 -0.14056292 0.08120413
000270 7c 21 08 be 3a 11 40 3c 1c a3 fd 3c 01 16 39 bd
       -0.13294023 0.011722857 0.030961566 -0.045187
000280 2e 73 aa be c2 c1 0b 3d 04 0c 36 3e 2b c4 90 bd
       -0.33291 0.03412033 0.17778021 -0.07068666
000290 81 8a 17 be c9 aa a2 3d 9a e3 65 bd f9 68 59 bd
       -0.14798929 0.07942731 -0.05612526 -0.053078625
0002a0 98 5c 0d bd 8f 4b 77 bd d6 25 c4 bc 95 09 08 3e
       -0.034512132 -0.060374793 -0.023943823 0.13284905
0002b0 42 58 68 3d 70 9c a1 3d 15 88 c2 bd 2b 1a a4 bc
       0.056724794 0.07891166 -0.09498612 -0.02003201
0002c0 ba c9 7d 3d 17 15 2f be 58 13 52 3d 9b a9 62 bd
       0.06195996 -0.17097889 0.05128798 -0.05533753
0002d0 15 80 00 be 92 fa bd bd be 53 2a bd b3 28 43 be
       -0.1254886 -0.09276308 -0.04158377 -0.19058494
0002e0 e2 85 64 3d eb 4c 03 be e3 e4 32 bc 12 ea d3 3d
       0.055791743 -0.1282231 -0.010918829 0.1034738
0002f0 e2 2a c2 3d a6 22 63 bd 27 51 39 be 45 14 5d 3d
       0.094808355 -0.055452965 -0.18097363 0.05397441
000300 31 d6 c1 3d 21 7b ae bd 31 c3 4f 3d ac cf 0a 3e
       0.09464682 -0.08519579 0.05072326 0.13555783
000310 68 7e a2 be 41 51 62 3e a3 31 61 3d f9 99 83 3b
       -0.31737065 0.22101308 0.054978978 0.0040161577
000320 cb ae ce be f4 db b2 3d a2 09 45 3d ef 48 c6 3d
       -0.4036773 0.08733359 0.04810489 0.0968188
000330 92 a0 80 bd 85 74 7c 3e 59 24 8c bd 43 32 01 be
       -0.06280626 0.24653824 -0.0684287 -0.1261683
000340 12 41 69 3c 45 cf 81 3b 12 c8 41 3d 96 e3 a4 3d
       0.014236705 0.003961476 0.047309943 0.08051221
000350 ac 3c 43 be 71 56 fe 38 bf 0a db 3d df 28 2e bd
       -0.19066113 0.00012127765 0.10695409 -0.042519446
000360 ae b0 a5 bd 2b 36 9f be 61 2d 83 bd 59 b3 18 bd
       -0.080903396 -0.31096014 -0.0640514 -0.037280414
000370 dc d1 19 3e bc 80 0b be f3 53 57 3b 79 32 1b be
       0.15021461 -0.13623327 0.0032856434 -0.15155973
000380 6e 39 fa be 38 e7 19 3e 34 17 4e 3e d8 ba 0a 3f
       -0.4887194 0.15029609 0.20126039 0.5419135
000390 4b 18 5c bd 68 3d 9d 3d 67 3a 89 bd ce 80 40 3e
       -0.053734105 0.07677728 -0.067005925 0.18799135
0003a0 b5 3b 37 be be 5f 30 be 53 c1 d2 bd 40 5b e7 3d
       -0.1789387 -0.17224023 -0.1029078 0.112967014
0003b0 38 af d3 3b e8 ec cc bc 72 b3 97 bd 23 ea b8 bd
       0.0064600967 -0.02501531 -0.07407273 -0.09029033
0003c0 6c 27 f7 3c e7 b9 cc bd a6 17 50 be e8 04 7f 3d
       0.030170165 -0.099963956 -0.20321521 0.06226054
0003d0 f7 7c dc bd a6 63 c0 3d 8e bd fb bd f9 eb fb be
       -0.10766023 0.093940064 -0.12292014 -0.4920347
0003e0 b4 51 18 bd 1d b4 e4 3d b8 ff de bd 8b 7a 90 be
       -0.037187293 0.111671664 -0.10888618 -0.28218493
0003f0 e6 d6 ff 3d c5 f0 16 be ea 34 a5 be 31 00 4d be
       0.124921605 -0.14740284 -0.32266933 -0.20019604

fc3_2.bias f4 [32]
000000 f6 d7 12 3f ac f5 a2 bd 28 76 e5 bd c6 55 38 be
       0.5736078 -0.079570144 -0.11204177 -0.1800147
000010 bd ca cb bd b6 b9 20 3e d5 16 6f be e3 05 51 bc
       -0.09950779 0.15695843 -0.23348553 -0.012757751
000020 e8 01 24 bf 95 57 23 3d 09 83 51 bd 0d 80 39 be
       -0.6406541 0.039878447 -0.051150355 -0.18115254
000030 51 74 3b be 18 ad a1 bd bd 87 7e 3c 26 51 df bc
       -0.1830609 -0.07894343 0.015535292 -0.027260374
000040 fa de 41 bd 22 9e 54 3d 88 21 f9 3d a8 07 f8 3d
       -0.047331788 0.05190862 0.12164599 0.12110835
000050 c8 ae 17 be 26 9a 32 3e be 0d 95 3e db d0 73 3e
       -0.14812768 0.17441615 0.29112047 0.23810141
000060 3a a6 1f be 57 a5 9b 3d 78 eb cd be e5 c5 84 be
       -0.15590754 0.075998954 -0.4021871 -0.25932232
000070 b9 eb df bd 75 8b 03 bc 2f 72 86 3d 99 5b c9 bd
       -0.109336324 -0.008028855 0.065647475 -0.09831924

fc4_2.weight f4 [4, 32]
000000 06 a7 98 3e ea a8 f9 3d 9e d5 17 be 94 c4 96 be
       0.2981493 0.12190421 -0.14827582 -0.29446852
000010 6d 79 87 be f3 1d dd 3c f8 45 1e be 19 f1 29 3e
       -0.26459828 0.02699182 -0.15456378 0.16595878
000020 bf e0 61 3e 8e 30 9f 3e 5b 76 37 bf 34 c4 0e 3f
       0.2205839 0.31091732 -0.7166497 0.5576813
000030 13 ac 68 be a4 8d 34 be 41 f9 fe be 0a fa 11 be
       -0.22721891 -0.17632157 -0.4979954 -0.14255539
000040 c3 41 52 bf a5 f2 04 bf 8b 09 90 3e 4b 23 26 3e
       -0.82131594 -0.51932746 0.2813228 0.162244
000050 e5 f9 dd bc 93 03 26 3f 66 17 95 be d7 9e 08 bf
       -0.027096698 0.64849204 -0.29119414 -0.5336737
000060 e4 67 d8 be d8 82 e5 be 4f fb 11 be cb e3 eb bd
       -0.42266762 -0.44826388 -0.14256023 -0.115180574
000070 82 b9 cd bd 87 11 8d 3d de 11 24 bf 27 4d 00 bf
       -0.100451484 0.06888109 -0.64089763 -0.50117725
000080 3c 7c 0c bf ab 35 20 3f de df a4 bd fa c8 47 3e
       -0.54877067 0.6258189 -0.08050512 0.1951026
000090 17 eb 30 3f f3 84 36 3d 23 b8 ce 3e 84 1e 2b be
       0.6910872 0.044560384 0.4037486 -0.1671086
0000a0 b1 7b 42 3e a9 2c 50 3f db 4c b7 3d 98 a7 a5 be
       0.18992497 0.81318146 0.08950206 -0.32354426
0000b0 90 53 77 3e 3d 4c 08 be 40 07 b0 3d 34 a2 e8 3d
       0.2415297 -0.13310333 0.08595133 0.11359063
0000c0 3f 0c 6f bf b5 dc e8 3e c0 08 c3 3e a8 75 b9 3d
       -0.9337806 0.45480886 0.38092613 0.09055644
0000d0 a1 b4 e7 bd 73 c0 a5 3d 85 98 2d 3e 9e fe c2 be
       -0.11313749 0.080933474 0.16952713 -0.38084882
0000e0 96 8c 14 bf bd 55 85 be a8 02 8e 3e 43 4b 54 bf
       -0.5802702 -0.26041976 0.27736402 -0.8292734
0000f0 c1 0f 2d 3e bb 6a 1e be 82 91 1e bf 09 2d 01 bf
       0.16900541 -0.15470402 -0.6194078 -0.50459343
000100 7b 95 17 bf dc e8 61 be a2 45 a7 bd b6 f2 b4 3e
       -0.59212464 -0.22061485 -0.08167578 0.35341424
000110 e2 60 b4 3e c0 ab d7 3e db e1 ed 3d 4e 34 10 3e
       0.35230166 0.42123222 0.11615344 0.14082453
000120 7a 40 24 be 37 f2 81 bf b3 fe 03 be 74 9f 9d bd
       -0.16040221 -1.0152043 -0.12890129 -0.07696429
000130 f0 c6 92 3d c4 27 b7 bd ca 73 01 3f 87 bb de bb
       0.071668506 -0.089431316 0.50567305 -0.0067972573
000140 39 29 73 3f 15 df 20 3f 1f f5 da be 9c cf a4 3d
       0.94984776 0.62840396 -0.42765138 0.08047411
000150 7e 6b c7 3c 5e 7c 1f bf 8c ba 9c 3e 73 cd 20 3f
       0.024343248 -0.62299144 0.30611074 0.6281349
000160 b0 0f 19 3f 78 39 34 3f 5d 7a 67 3e a2 98 7c 3f
       0.5978956 0.7040019 0.22605272 0.986704
000170 bc e9 c0 3c 05 2a fe 3e 68 14 7b 3f e0 cc 86 3f
       0.023548953 0.49641433 0.9807801 1.0531273
000180 ae 0a 6a 3f 2c 15 00 bf 13 48 9f 3d ca 24 db be
       0.91422546 -0.50032306 0.07777419 -0.42801505
000190 c3 34 82 bf 7b e3 1c bd 4c 89 07 bf 9c 38 76 bd
       -1.0172352 -0.03830288 -0.52943873 -0.06011258
0001a0 ff 49 0e be bd 51 61 3e a8 2b 18 3f c8 b0 98 be
       -0.13895415 0.22003837 0.59441614 -0.29822373
0001b0 18 df 86 3c f4 8f 2e bd 2c 51 1d 3e 5b f5 af bd
       0.016463801 -0.042617753 0.15362996 -0.0859172
0001c0 e8 16 a9 3e 30 51 16 bf 14 a7 f6 3c 30 42 81 3e
       0.3302529 -0.5871763 0.030108966 0.2524581
0001d0 84 83 29 3e 9a 7c 0b 3e a7 64 5b be 95 33 b0 3e
       0.16554075 0.1362175 -0.21425115 0.34414354
0001e0 a3 e5 b3 3e c5 ef e1 be 85 67 ee be 7f 76 0f 3d
       0.35136136 -0.44128242 -0.46563354 0.035025116
0001f0 0a 57 10 3e 95 00 2f bf 71 2b 05 be 89 6e 01 3e
       0.14095703 -0.68360263 -0.13004853 0.12639822

fc4_2.bias f4 [4]
000000 a9 d8 8d 3c 0e f1 a4 3d 3c d2 8f 3e 6d 0d 1b be
       0.017315226 0.0805379 0.28090084 -0.1514184
